…
 norm.weight
 norm.bias
 head.weight
 head.bias








classes 7806
C:\Users\stevf\anaconda3\envs\clef2024\lib\site-packages\timm\models\vision_transformer.py:91: UserWarning: 1Torch was not compiled with flash attention. (Triggered internally at C:\cb\pytorch_1000000000000\work\aten\src\ATen\native\transformers\cuda\sdp_utils.cpp:263.)
  x = F.scaled_dot_product_attention(
----------------------------------------------------------------
        Layer (type)               Output Shape         Param #
================================================================
            Conv2d-1          [-1, 768, 37, 37]         452,352
          Identity-2            [-1, 1369, 768]               0
        PatchEmbed-3            [-1, 1369, 768]               0
           Dropout-4            [-1, 1374, 768]               0
          Identity-5            [-1, 1374, 768]               0
          Identity-6            [-1, 1374, 768]               0
         LayerNorm-7            [-1, 1374, 768]           1,536
            Linear-8           [-1, 1374, 2304]       1,771,776
          Identity-9         [-1, 12, 1374, 64]               0
         Identity-10         [-1, 12, 1374, 64]               0
           Linear-11            [-1, 1374, 768]         590,592
          Dropout-12            [-1, 1374, 768]               0
        Attention-13            [-1, 1374, 768]               0
       LayerScale-14            [-1, 1374, 768]               0
         Identity-15            [-1, 1374, 768]               0
        LayerNorm-16            [-1, 1374, 768]           1,536
           Linear-17           [-1, 1374, 3072]       2,362,368
             GELU-18           [-1, 1374, 3072]               0
          Dropout-19           [-1, 1374, 3072]               0
         Identity-20           [-1, 1374, 3072]               0
           Linear-21            [-1, 1374, 768]       2,360,064
          Dropout-22            [-1, 1374, 768]               0
              Mlp-23            [-1, 1374, 768]               0
       LayerScale-24            [-1, 1374, 768]               0
         Identity-25            [-1, 1374, 768]               0
            Block-26            [-1, 1374, 768]               0
        LayerNorm-27            [-1, 1374, 768]           1,536
           Linear-28           [-1, 1374, 2304]       1,771,776
         Identity-29         [-1, 12, 1374, 64]               0
         Identity-30         [-1, 12, 1374, 64]               0
           Linear-31            [-1, 1374, 768]         590,592
          Dropout-32            [-1, 1374, 768]               0
        Attention-33            [-1, 1374, 768]               0
       LayerScale-34            [-1, 1374, 768]               0
         Identity-35            [-1, 1374, 768]               0
        LayerNorm-36            [-1, 1374, 768]           1,536
           Linear-37           [-1, 1374, 3072]       2,362,368
             GELU-38           [-1, 1374, 3072]               0
          Dropout-39           [-1, 1374, 3072]               0
         Identity-40           [-1, 1374, 3072]               0
           Linear-41            [-1, 1374, 768]       2,360,064
          Dropout-42            [-1, 1374, 768]               0
              Mlp-43            [-1, 1374, 768]               0
       LayerScale-44            [-1, 1374, 768]               0
         Identity-45            [-1, 1374, 768]               0
            Block-46            [-1, 1374, 768]               0
        LayerNorm-47            [-1, 1374, 768]           1,536
           Linear-48           [-1, 1374, 2304]       1,771,776
         Identity-49         [-1, 12, 1374, 64]               0
         Identity-50         [-1, 12, 1374, 64]               0
           Linear-51            [-1, 1374, 768]         590,592
          Dropout-52            [-1, 1374, 768]               0
        Attention-53            [-1, 1374, 768]               0
       LayerScale-54            [-1, 1374, 768]               0
         Identity-55            [-1, 1374, 768]               0
        LayerNorm-56            [-1, 1374, 768]           1,536
           Linear-57           [-1, 1374, 3072]       2,362,368
             GELU-58           [-1, 1374, 3072]               0
          Dropout-59           [-1, 1374, 3072]               0
         Identity-60           [-1, 1374, 3072]               0
           Linear-61            [-1, 1374, 768]       2,360,064
          Dropout-62            [-1, 1374, 768]               0
              Mlp-63            [-1, 1374, 768]               0
       LayerScale-64            [-1, 1374, 768]               0
         Identity-65            [-1, 1374, 768]               0
            Block-66            [-1, 1374, 768]               0
        LayerNorm-67            [-1, 1374, 768]           1,536
           Linear-68           [-1, 1374, 2304]       1,771,776
         Identity-69         [-1, 12, 1374, 64]               0
         Identity-70         [-1, 12, 1374, 64]               0
           Linear-71            [-1, 1374, 768]         590,592
          Dropout-72            [-1, 1374, 768]               0
        Attention-73            [-1, 1374, 768]               0
       LayerScale-74            [-1, 1374, 768]               0
         Identity-75            [-1, 1374, 768]               0
        LayerNorm-76            [-1, 1374, 768]           1,536
           Linear-77           [-1, 1374, 3072]       2,362,368
             GELU-78           [-1, 1374, 3072]               0
          Dropout-79           [-1, 1374, 3072]               0
         Identity-80           [-1, 1374, 3072]               0
           Linear-81            [-1, 1374, 768]       2,360,064
          Dropout-82            [-1, 1374, 768]               0
              Mlp-83            [-1, 1374, 768]               0
       LayerScale-84            [-1, 1374, 768]               0
         Identity-85            [-1, 1374, 768]               0
            Block-86            [-1, 1374, 768]               0
        LayerNorm-87            [-1, 1374, 768]           1,536
           Linear-88           [-1, 1374, 2304]       1,771,776
         Identity-89         [-1, 12, 1374, 64]               0
         Identity-90         [-1, 12, 1374, 64]               0
           Linear-91            [-1, 1374, 768]         590,592
          Dropout-92            [-1, 1374, 768]               0
        Attention-93            [-1, 1374, 768]               0
       LayerScale-94            [-1, 1374, 768]               0
         Identity-95            [-1, 1374, 768]               0
        LayerNorm-96            [-1, 1374, 768]           1,536
           Linear-97           [-1, 1374, 3072]       2,362,368
             GELU-98           [-1, 1374, 3072]               0
          Dropout-99           [-1, 1374, 3072]               0
        Identity-100           [-1, 1374, 3072]               0
          Linear-101            [-1, 1374, 768]       2,360,064
         Dropout-102            [-1, 1374, 768]               0
             Mlp-103            [-1, 1374, 768]               0
      LayerScale-104            [-1, 1374, 768]               0
        Identity-105            [-1, 1374, 768]               0
           Block-106            [-1, 1374, 768]               0
       LayerNorm-107            [-1, 1374, 768]           1,536
          Linear-108           [-1, 1374, 2304]       1,771,776
        Identity-109         [-1, 12, 1374, 64]               0
        Identity-110         [-1, 12, 1374, 64]               0
          Linear-111            [-1, 1374, 768]         590,592
         Dropout-112            [-1, 1374, 768]               0
       Attention-113            [-1, 1374, 768]               0
      LayerScale-114            [-1, 1374, 768]               0
        Identity-115            [-1, 1374, 768]               0
       LayerNorm-116            [-1, 1374, 768]           1,536
          Linear-117           [-1, 1374, 3072]       2,362,368
            GELU-118           [-1, 1374, 3072]               0
         Dropout-119           [-1, 1374, 3072]               0
        Identity-120           [-1, 1374, 3072]               0
          Linear-121            [-1, 1374, 768]       2,360,064
         Dropout-122            [-1, 1374, 768]               0
             Mlp-123            [-1, 1374, 768]               0
      LayerScale-124            [-1, 1374, 768]               0
        Identity-125            [-1, 1374, 768]               0
           Block-126            [-1, 1374, 768]               0
       LayerNorm-127            [-1, 1374, 768]           1,536
          Linear-128           [-1, 1374, 2304]       1,771,776
        Identity-129         [-1, 12, 1374, 64]               0
        Identity-130         [-1, 12, 1374, 64]               0
          Linear-131            [-1, 1374, 768]         590,592
         Dropout-132            [-1, 1374, 768]               0
       Attention-133            [-1, 1374, 768]               0
      LayerScale-134            [-1, 1374, 768]               0
        Identity-135            [-1, 1374, 768]               0
       LayerNorm-136            [-1, 1374, 768]           1,536
          Linear-137           [-1, 1374, 3072]       2,362,368
            GELU-138           [-1, 1374, 3072]               0
         Dropout-139           [-1, 1374, 3072]               0
        Identity-140           [-1, 1374, 3072]               0
          Linear-141            [-1, 1374, 768]       2,360,064
         Dropout-142            [-1, 1374, 768]               0
             Mlp-143            [-1, 1374, 768]               0
      LayerScale-144            [-1, 1374, 768]               0
        Identity-145            [-1, 1374, 768]               0
           Block-146            [-1, 1374, 768]               0
       LayerNorm-147            [-1, 1374, 768]           1,536
          Linear-148           [-1, 1374, 2304]       1,771,776
        Identity-149         [-1, 12, 1374, 64]               0
        Identity-150         [-1, 12, 1374, 64]               0
          Linear-151            [-1, 1374, 768]         590,592
         Dropout-152            [-1, 1374, 768]               0
       Attention-153            [-1, 1374, 768]               0
      LayerScale-154            [-1, 1374, 768]               0
        Identity-155            [-1, 1374, 768]               0
       LayerNorm-156            [-1, 1374, 768]           1,536
          Linear-157           [-1, 1374, 3072]       2,362,368
            GELU-158           [-1, 1374, 3072]               0
         Dropout-159           [-1, 1374, 3072]               0
        Identity-160           [-1, 1374, 3072]               0
          Linear-161            [-1, 1374, 768]       2,360,064
         Dropout-162            [-1, 1374, 768]               0
             Mlp-163            [-1, 1374, 768]               0
      LayerScale-164            [-1, 1374, 768]               0
        Identity-165            [-1, 1374, 768]               0
           Block-166            [-1, 1374, 768]               0
       LayerNorm-167            [-1, 1374, 768]           1,536
          Linear-168           [-1, 1374, 2304]       1,771,776
        Identity-169         [-1, 12, 1374, 64]               0
        Identity-170         [-1, 12, 1374, 64]               0
          Linear-171            [-1, 1374, 768]         590,592
         Dropout-172            [-1, 1374, 768]               0
       Attention-173            [-1, 1374, 768]               0
      LayerScale-174            [-1, 1374, 768]               0
        Identity-175            [-1, 1374, 768]               0
       LayerNorm-176            [-1, 1374, 768]           1,536
          Linear-177           [-1, 1374, 3072]       2,362,368
            GELU-178           [-1, 1374, 3072]               0
         Dropout-179           [-1, 1374, 3072]               0
        Identity-180           [-1, 1374, 3072]               0
          Linear-181            [-1, 1374, 768]       2,360,064
         Dropout-182            [-1, 1374, 768]               0
             Mlp-183            [-1, 1374, 768]               0
      LayerScale-184            [-1, 1374, 768]               0
        Identity-185            [-1, 1374, 768]               0
           Block-186            [-1, 1374, 768]               0
       LayerNorm-187            [-1, 1374, 768]           1,536
          Linear-188           [-1, 1374, 2304]       1,771,776
        Identity-189         [-1, 12, 1374, 64]               0
        Identity-190         [-1, 12, 1374, 64]               0
          Linear-191            [-1, 1374, 768]         590,592
         Dropout-192            [-1, 1374, 768]               0
       Attention-193            [-1, 1374, 768]               0
      LayerScale-194            [-1, 1374, 768]               0
        Identity-195            [-1, 1374, 768]               0
       LayerNorm-196            [-1, 1374, 768]           1,536
          Linear-197           [-1, 1374, 3072]       2,362,368
            GELU-198           [-1, 1374, 3072]               0
         Dropout-199           [-1, 1374, 3072]               0
        Identity-200           [-1, 1374, 3072]               0
          Linear-201            [-1, 1374, 768]       2,360,064
         Dropout-202            [-1, 1374, 768]               0
             Mlp-203            [-1, 1374, 768]               0
      LayerScale-204            [-1, 1374, 768]               0
        Identity-205            [-1, 1374, 768]               0
           Block-206            [-1, 1374, 768]               0
       LayerNorm-207            [-1, 1374, 768]           1,536
          Linear-208           [-1, 1374, 2304]       1,771,776
        Identity-209         [-1, 12, 1374, 64]               0
        Identity-210         [-1, 12, 1374, 64]               0
          Linear-211            [-1, 1374, 768]         590,592
         Dropout-212            [-1, 1374, 768]               0
       Attention-213            [-1, 1374, 768]               0
      LayerScale-214            [-1, 1374, 768]               0
        Identity-215            [-1, 1374, 768]               0
       LayerNorm-216            [-1, 1374, 768]           1,536
          Linear-217           [-1, 1374, 3072]       2,362,368
            GELU-218           [-1, 1374, 3072]               0
         Dropout-219           [-1, 1374, 3072]               0
        Identity-220           [-1, 1374, 3072]               0
          Linear-221            [-1, 1374, 768]       2,360,064
         Dropout-222            [-1, 1374, 768]               0
             Mlp-223            [-1, 1374, 768]               0
      LayerScale-224            [-1, 1374, 768]               0
        Identity-225            [-1, 1374, 768]               0
           Block-226            [-1, 1374, 768]               0
       LayerNorm-227            [-1, 1374, 768]           1,536
          Linear-228           [-1, 1374, 2304]       1,771,776
        Identity-229         [-1, 12, 1374, 64]               0
        Identity-230         [-1, 12, 1374, 64]               0
          Linear-231            [-1, 1374, 768]         590,592
         Dropout-232            [-1, 1374, 768]               0
       Attention-233            [-1, 1374, 768]               0
      LayerScale-234            [-1, 1374, 768]               0
        Identity-235            [-1, 1374, 768]               0
       LayerNorm-236            [-1, 1374, 768]           1,536
          Linear-237           [-1, 1374, 3072]       2,362,368
            GELU-238           [-1, 1374, 3072]               0
         Dropout-239           [-1, 1374, 3072]               0
        Identity-240           [-1, 1374, 3072]               0
          Linear-241            [-1, 1374, 768]       2,360,064
         Dropout-242            [-1, 1374, 768]               0
             Mlp-243            [-1, 1374, 768]               0
      LayerScale-244            [-1, 1374, 768]               0
        Identity-245            [-1, 1374, 768]               0
           Block-246            [-1, 1374, 768]               0
       LayerNorm-247            [-1, 1374, 768]           1,536
        Identity-248                  [-1, 768]               0
         Dropout-249                  [-1, 768]               0
          Linear-250                 [-1, 7806]       6,002,814



    import requests
    from io import BytesIO
    
    patch_size = 14

    response = requests.get("https://dl.fbaipublicfiles.com/dino/img.png")
    img0 = Image.open(BytesIO(response.content))
    img0 = img0.convert('RGB')
    
    plt.imshow(img0)
    print(type(img0))
    print(np.array(img0).shape)

    transform = T.Compose([
        T.Resize((518, 518)),
        T.ToTensor(),
        T.Normalize((0.485, 0.456, 0.406), (0.229, 0.224, 0.225)),
…
